cdx_lstm.pt (torch, 156230 bytes, 34 tensors)

lstm_macro.weight_ih_l0 f4 [128, 58]
0	0x3d9e4352	0.07727684
1	0x3e56a848	0.20962632
2	0x3e195222	0.14972737
3	0xbe20fcc7	-0.15721427
4	0x3df0d31b	0.11759015
5	0xbd3a4ece	-0.04548531
6	0x3d492e8f	0.049116667
7	0x3db9e38a	0.09076603
8	0x3df9e60a	0.122020796
9	0x3d0b17d7	0.033958282
10	0x3d11d885	0.03560688
11	0xbd2370fe	-0.03990268
12	0x3d81cd56	0.06337993
13	0x3e19d9ae	0.15024444
14	0xbdc9d9b7	-0.09855979
15	0xbc298382	-0.010346295
16	0xbdffc93b	-0.124895535
17	0xbd476555	-0.048680622
18	0xbdffcc2c	-0.124901146
19	0xbc74acfd	-0.014933822
20	0xbda8d4cb	-0.08243712
21	0x3cbc9ba3	0.023023432
22	0x3e0e9244	0.13922983
23	0xbe52b65f	-0.20577382
24	0x3e54b90f	0.20773719
25	0x3d81db8b	0.063407026
26	0x3e5d8d48	0.21635926
27	0xbe0c6a61	-0.13712455
28	0xbd713ce7	-0.05889597
29	0xbdcacab7	-0.09901946
30	0xbd862b64	-0.06551245
31	0xbe28a142	-0.16467765
32	0xbc9ec1e4	-0.019379564
33	0x3e4b65ab	0.19863002
34	0x3dd4408d	0.103638746
35	0xbda7031a	-0.081548885
36	0x3ded9287	0.116002135
37	0xbe096bea	-0.13420072
38	0x3c670c28	0.014102019
39	0x3d052f12	0.032515593
40	0x3ce92078	0.028457865
41	0xbe51272f	-0.20425104
42	0xbdd9edb7	-0.10641044
43	0xbe48c565	-0.1960655
44	0xbd093003	-0.033493053
45	0x3c95659e	0.018236931
46	0xbdd35ea9	-0.10320789
47	0x3e1bb5b6	0.15206036
48	0xbdc57dff	-0.096431725
49	0x3d5ba168	0.053620726
50	0xbdd3f660	-0.10349727
51	0x3ca0ce26	0.01962955
52	0x3e215e99	0.15758742
53	0xbd92b95f	-0.07164263
54	0x3d828497	0.06372946
55	0xbda8adfe	-0.082363114
56	0x3db65d42	0.08904506
57	0xbd26e73b	-0.040747862
58	0x3d953da2	0.07287146
59	0x3e1eccc4	0.155078
60	0xbc308cb7	-0.0107757365
61	0xbdd3a20e	-0.10333644
62	0xbdd9a33e	-0.10626839
63	0xbd91f32e	-0.07126461
64	0x3e1647d6	0.1467584
65	0xbcc8e943	-0.02452529
66	0x3dd3d241	0.10342837
67	0xbdfdaf83	-0.12386992
68	0xbd8c9a31	-0.06865347
69	0xbe4f92be	-0.20270821
70	0x3e02d8e7	0.12778054
71	0xbd95b20c	-0.0730935
72	0x3e2086b5	0.15676387
73	0xbd91ba83	-0.071156524
74	0xbd7befb7	-0.061507907
75	0xbbcdb647	-0.0062778327
76	0x3d323824	0.04351057
77	0x3e2cf5c2	0.16890624
78	0xbd3c3990	-0.045953333
79	0x3c5aab48	0.013346501
80	0x3d8406a2	0.064465776
81	0x3ce10f15	0.027473012
82	0xbe161596	-0.14656672
83	0xbdb8a61a	-0.09016056
84	0x3e3cf561	0.1845298
85	0x39ac77c9	0.00032895643
86	0x3cc45172	0.023964617
87	0x3d87a063	0.06622388
88	0x3dc72c7a	0.0972528
89	0xbe59fec5	-0.21288593
90	0xbc606c92	-0.01369776
91	0xbdcbb37d	-0.09946344
92	0x3dbcae23	0.092129014
93	0xbbc85a86	-0.006114307
94	0x3dc0b4cc	0.09409484
95	0x3ca8ecfd	0.020620817
96	0xbe129d6f	-0.14317869
97	0xbd6795f0	-0.056539476
98	0xbd1850d2	-0.03718645
99	0xbe0546de	-0.13015315
100	0xbdffd5b9	-0.12491936
101	0xbc0fcf11	-0.008777396
102	0x3df75f56	0.12078731
103	0xbdce4f33	-0.100737
104	0x3c9991b7	0.01874624
105	0x3b382488	0.0028097946
106	0xbda24e94	-0.07925144
107	0xbddaac71	-0.10677422
108	0x3be7c5dc	0.007073147
109	0xbd8152e4	-0.06314638
110	0xbe0f3740	-0.1398592
111	0xbd5e9f91	-0.054351393
112	0x3d39e35b	0.04538284
113	0xbd20b9cb	-0.039239686
114	0x3ce8689f	0.0283702
115	0xbe0dfe42	-0.13866523
116	0xbdb0356e	-0.08603941
117	0x3d28bb60	0.04119432
118	0x3bb36fa6	0.005475956
119	0x3d52e641	0.05148912
120	0x3d5dec07	0.05418017
121	0x3c319a66	0.010840034
122	0xbe1106fe	-0.14162824
123	0x3df8bb05	0.12145046
124	0x3e3c2f21	0.18377353
125	0xbdee7280	-0.11642933
126	0xbc4e1d77	-0.012580267
127	0xbd56bbf5	-0.052425344
128	0xbe16e36c	-0.14735192
129	0x3dd6dbd2	0.10491146
130	0x3d314c18	0.04328546
131	0xbde42754	-0.11140314
132	0xbdab40cc	-0.083619684
133	0xbdd1277e	-0.10212611
134	0x3dc33e3c	0.09533355
135	0xbd8b2b1e	-0.06795333
136	0x3ce1424f	0.027497439
137	0x3df0e0e8	0.117616475
138	0xbe545978	-0.20737255
139	0x3cd81805	0.02637864
140	0xbe2cce2a	-0.1687552
141	0xbd6f442a	-0.058414616
142	0x3c5c3e6c	0.013442617
143	0xbd51be3f	-0.051206823
144	0xbd880b02	-0.066427246
145	0x3e45dff4	0.19323713
146	0xbb8ee140	-0.004360348
147	0xbcbf3a69	-0.023343282
148	0x3d80ab5c	0.06282684
149	0x3e3c7fff	0.18408202
150	0xbc2dc352	-0.01060565
151	0x39274ec8	0.0001595571
152	0x3d670103	0.05639745
153	0x3e58e169	0.21179737
154	0x3d9e2a7f	0.07722949
155	0x3dbe8406	0.09302525
156	0x3e5b97a2	0.21444562
157	0xbdd97b9f	-0.10619282
158	0xbd84e065	-0.06488112
159	0xbddb77a8	-0.10716182
160	0x3c86b6c0	0.016444564
161	0x3d947edf	0.07250761
162	0xbe2cedc9	-0.16887583
163	0x3d5e0e27	0.054212715
164	0x3daecb9b	0.085349284
165	0xbdff054d	-0.12452183
166	0x3e0d2123	0.13782172
167	0x3e1b065c	0.15139145
168	0xbd27c328	-0.0409576
169	0xbdf95554	-0.12174478
170	0x3e3a47ff	0.18191527
171	0xbccdb9c1	-0.025112988
172	0xbd3acc60	-0.045605063
173	0x3cd79bb8	0.02631937
174	0x3deb065a	0.11475821
175	0x3d354656	0.04425653
176	0xbd04ad2a	-0.032391705
177	0x3e0e5ee4	0.13903385
178	0xbd30ae09	-0.043134723
179	0xbba6d5bc	-0.005091397
180	0x3e541166	0.20709762
181	0x3e19eb8f	0.15031265
182	0xbd1d8e33	-0.03846569
183	0x3e2f4fe5	0.17120321
184	0xbd9c1d34	-0.076227576
185	0xbddcc5ef	-0.1077994
186	0x3e10e6a8	0.14150488
187	0xbdfd7e02	-0.1237755
188	0x3d9eabf2	0.0774764
189	0xbd2bd91f	-0.04195511
190	0x3e15ae5d	0.14617296
191	0xbdba4151	-0.09094489
192	0x3e3b89da	0.18314305
193	0x3b78db0e	0.0037972364
194	0x3d49e338	0.04928896
195	0xbdcd551a	-0.100259975
196	0x3d210342	0.039309748
197	0x3c03d32b	0.008045952
198	0xbd160cf4	-0.036633447
199	0x3e349bd2	0.17637566
200	0x3b72e7d5	0.0037064452
201	0xbe03099f	-0.12796639
202	0xba9e14ee	-0.0012060681
203	0xbe32d09e	-0.17462394
204	0x3d82a164	0.06378439
205	0x3dc48275	0.09595195
206	0xbdfbd0d1	-0.12295688
207	0x3d8681c5	0.0656772
208	0xbe12060b	-0.14260118
209	0xbe2319ad	-0.15927763
210	0x3d0cf598	0.034413904
211	0x3c6d2c0e	0.0144758355
212	0x3da03950	0.078234315
213	0xbcb28e76	-0.021796446
214	0x3e25f998	0.16208494
215	0xbc95883e	-0.018253442
216	0xbdb44c22	-0.08803584
217	0x3ce3df91	0.027816566
218	0x3daf2f72	0.08553971
219	0xbce99c37	-0.028516872
220	0xbcfb9f8b	-0.030715724
221	0xbdae4fb3	-0.08511295
222	0xbc88d33e	-0.01670229
223	0xbc39d81d	-0.011343029
224	0xbd1ec967	-0.03876629
225	0xbdbb1296	-0.09134404
226	0x3c9c044a	0.019045014
227	0x3d3f95de	0.046773784
228	0xbe3f33c7	-0.18672095
229	0x3d8131ac	0.06308302
230	0xbc8bf22e	-0.017083254
231	0x3d411c6e	0.047146253
232	0xbe409cbc	-0.1880979
233	0x3cb681ec	0.022278748
234	0xbcd05210	-0.025429755
235	0x3e050b22	0.12992528
236	0x3e1ddc63	0.15416102
237	0x3c0c8d84	0.008578662
238	0xbd87116b	-0.06595119
239	0x3ddbc542	0.10730983
240	0x3d2a97cb	0.041648667
241	0x3de5bdb8	0.112178266
242	0x3c9edbeb	0.019391974
243	0x3d997361	0.0749271
244	0x3e2a17f7	0.16610704
245	0xbd9134a7	-0.07090121
246	0x3d4ff3ac	0.050769493
247	0x3c6f3497	0.014599941
248	0x3db546d8	0.08851403
249	0x3d6e3e56	0.058164917
250	0xbd9c86e9	-0.076429196
251	0x3d448807	0.04798129
252	0xba01ca3b	-0.0004951094
253	0xbe030e50	-0.12798429
254	0x3ddbe0c8	0.10736233
255	0xbd93345f	-0.07187723

lstm_macro.weight_hh_l0 f4 [128, 32]
0	0x3e076202	0.13220981
1	0x3de23c0b	0.110466085
2	0x3e21f0b0	0.15814471
3	0x3c9258fe	0.0178647
4	0x3db23b90	0.08702767
5	0x3dfcb48d	0.12339125
6	0xbe0c995c	-0.13730377
7	0xbdc0293b	-0.09382864
8	0xbd19741e	-0.037464254
9	0x3d59ef19	0.053206537
10	0x3dcf00d8	0.10107583
11	0x3e3b807b	0.1831073
12	0xbe0add2e	-0.13560936
13	0xbd313e8f	-0.04327255
14	0x3e09931f	0.13435028
15	0xbd8d8e03	-0.06911852
16	0xbdcb8d6a	-0.09939082
17	0xbde6c21c	-0.11267492
18	0xbd85fbba	-0.06542154
19	0xbdeac870	-0.11464012
20	0x3ddea043	0.10870411
21	0xbdb26358	-0.087103546
22	0x3b077168	0.002066696
23	0x3df323ec	0.11872086
24	0x3e057db5	0.13036235
25	0x3e2663b2	0.16248968
26	0x3e240256	0.16016516
27	0xbe06f08d	-0.131777
28	0xbdf19695	-0.11796299
29	0xbe4441bd	-0.19165702
30	0x3b5c796f	0.0033641716
31	0xbdf76e08	-0.12081534
32	0xbe399d97	-0.18126522
33	0x3cbda3e0	0.02314943
34	0x3da5aefc	0.08090016
35	0xbdcf914d	-0.10135136
36	0x3d622f05	0.055220623
37	0xbe57398b	-0.21018045
38	0xbcfb53df	-0.030679641
39	0x3e122773	0.14272861
40	0xbe104950	-0.14090466
41	0xbe02556b	-0.12727897
42	0xbe2f4a7b	-0.17118256
43	0x3ca43840	0.020046353
44	0x3d0927bf	0.03348517
45	0x3e13aac5	0.14420612
46	0x3e2e7282	0.17035869
47	0x3e39b10a	0.18133941
48	0x3d680476	0.05664488
49	0x3de31b28	0.11089164
50	0x3daecd95	0.085353054
51	0xbd9e919f	-0.07742619
52	0xbd8f8fa8	-0.07009822
53	0x3d199627	0.037496712
54	0xbd8af968	-0.06785852
55	0x3e6daf32	0.23211363
56	0xbd53d234	-0.051714137
57	0xbdf223c6	-0.118232295
58	0x3dced057	0.100983314
59	0xbe0adb7d	-0.1356029
60	0xbccb3889	-0.024807232
61	0xbd714b93	-0.058909964
62	0xbe0d135e	-0.13776919
63	0xbd88167f	-0.06644916
64	0xbca3be49	-0.019988196
65	0xbc8ea8b8	-0.017414436
66	0x3e481594	0.19539481
67	0x3e45e612	0.19326046
68	0x3d0c4cb4	0.034252837
69	0x3d912d2d	0.07088695
70	0xbb39b99c	-0.0028339392
71	0x3d34a7e8	0.04410544
72	0xbe05e249	-0.13074602
73	0x3b11f61e	0.0022271941
74	0xbd42aeda	-0.047530033
75	0x3dd97fcd	0.10620079
76	0x3cd281c6	0.025696646
77	0xbd1d023b	-0.038332205
78	0x3d066b0d	0.032816935
79	0xbe2f1355	-0.17097218
80	0xbe43ed54	-0.19133502
81	0x3d2df130	0.042466342
82	0xbe01ba77	-0.12668787
83	0x3db8f9a3	0.090319894
84	0xbe351b39	-0.17686166
85	0xbe2a5c31	-0.1663673
86	0xbddd0203	-0.10791399
87	0xbe3a2491	-0.18178011
88	0x3d84dba1	0.064872034
89	0x3dc89e53	0.09795823
90	0x3e1670e6	0.14691505
91	0xbe25566f	-0.16146253
92	0x3d3de585	0.046361465
93	0x3d76d804	0.060264602
94	0x3d9c7c52	0.076409
95	0x3c7667b4	0.015039373
96	0xbd031df0	-0.032010972
97	0xbdb07b40	-0.08617258
98	0xbdba6466	-0.09101181
99	0x3db8318e	0.08993827
100	0x3e098dfb	0.13433068
101	0x3d81fddf	0.0634725
102	0x3db3fb4d	0.08788166
103	0x3de8985f	0.113571875
104	0x3b8e2e0d	0.004338986
105	0x3d3461e9	0.044038687
106	0x3dcc794c	0.09984073
107	0x3da0d9aa	0.07854016
108	0xbd8e1a18	-0.06938571
109	0x3d82ceb5	0.063870825
110	0x3bb63a74	0.0055611674
111	0x3e610eb6	0.21978268
112	0xbe2b1b1f	-0.16709565
113	0x3ce9e52f	0.028551666
114	0x3de607c2	0.112319484
115	0xbdcd7b9f	-0.100333445
116	0x3e539522	0.20662358
117	0xbde347d3	-0.11097684
118	0xbb38e52d	-0.0028212771
119	0x3cc3068b	0.02380683
120	0x3d20a158	0.03921637
121	0xbdac0076	-0.083985254
122	0x3e04f914	0.12985641
123	0xbe426cb8	-0.18986785
124	0x3db9d501	0.090738304
125	0x3e2ef2e4	0.17084843
126	0xbc8d372a	-0.017238218
127	0x3d7f041b	0.062259775
128	0x3d6dca7d	0.058054436
129	0xbda42ca3	-0.08016326
130	0xbc831959	-0.016003298
131	0xbd6bd7f5	-0.057579
132	0x3c408c8f	0.011752262
133	0xbdc607dd	-0.096694686
134	0xbd6aa97b	-0.057290535
135	0xbcb6bc5d	-0.022306615
136	0xbe46e3c7	-0.19422828
137	0xbe048154	-0.1293996
138	0xbcebf46c	-0.028803073
139	0xbdfcf288	-0.12350947
140	0x3dfd6647	0.123730235
141	0xbd966d9e	-0.073451266
142	0x3da3c9cd	0.07997475
143	0xbe4f738c	-0.20258921
144	0x3d898db2	0.06716479
145	0x3dd3b252	0.10336746
146	0x3ced7c39	0.028989898
147	0x3d2b19e9	0.041772757
148	0x3e232729	0.15932907
149	0x3c0e799e	0.008695988
150	0x3db65831	0.0890354
151	0x3dd46d46	0.10372405
152	0x3d36208b	0.04446463
153	0x3e0dac4d	0.13835259
154	0x3bcc75bb	0.0062396205
155	0xbd7019dd	-0.058618415
156	0xbe2b462c	-0.16725987
157	0x3dd91abd	0.10600803
158	0x3b854ef9	0.004068252
159	0x3d92735f	0.071509115
160	0xbe2a8634	-0.16652757
161	0xbc9f373a	-0.019435514
162	0x3c7c6ea4	0.015407238
163	0xbd4e5c6a	-0.0503811
164	0xbc7223c8	-0.014779039
165	0xbd3a83da	-0.0455359
166	0x3db95d77	0.0905103
167	0xbcf0e7f9	-0.029407488
168	0xbcfa710f	-0.030571489
169	0xbd8db99d	-0.069201685
170	0x3e082c18	0.1329807
171	0x3b0555a7	0.0020345242
172	0xbe531415	-0.2061313
173	0xbc4414ec	-0.011967879
174	0x3e4f83d4	0.20265132
175	0xbe36c6e4	-0.17849308
176	0xbc4b243d	-0.012398777
177	0x3dce61a5	0.10077218
178	0x3e22d8e8	0.15903056
179	0x3c7b67c6	0.015344566
180	0xbe0a158e	-0.13484785
181	0x3d076601	0.033056263
182	0x3dfde149	0.12396485
183	0x3e1b4d0d	0.15166111
184	0x3dd453d2	0.1036755
185	0x3e4e2a38	0.20133293
186	0x3e38dafc	0.18052286
187	0xbd45143a	-0.048114993
188	0x3e019364	0.12653881
189	0x3dac4332	0.08411254
190	0x3dba8922	0.09108187
191	0xbd623359	-0.05522475
192	0xbd0597fd	-0.03261565
193	0x3de18a17	0.11012667
194	0x3d457ab3	0.04821272
195	0xbdecf5e4	-0.115703374
196	0x3e1396a5	0.14412935
197	0x3b5a2d83	0.0033291287
198	0xbd109901	-0.035302166
199	0xbd03ac9a	-0.032147028
200	0xbc84b35b	-0.016198805
201	0x3e0576d1	0.13033606
202	0xbd53d0d2	-0.05171282
203	0xbded720f	-0.115940206
204	0x3e67ff15	0.226559
205	0x3d0b5ab2	0.03402204
206	0x3d81c7af	0.06336915
207	0x3d86a703	0.06574824
208	0x3e276d3e	0.16350266
209	0x3d06a4eb	0.03287212
210	0xbe436a78	-0.19083583
211	0x3db029cd	0.08601723
212	0xbdd6714d	-0.10470829
213	0x3ddb5c34	0.10710946
214	0xbd8bed04	-0.068323165
215	0xbdd9bba2	-0.10631491
216	0x3d14f8c7	0.036370065
217	0x3e4c8f17	0.1997646
218	0x3e28fd4e	0.16502878
219	0xbd38ecdd	-0.045147765
220	0x3d68da9e	0.056849115
221	0x3e06acc5	0.13151844
222	0x3d2f6baf	0.042827304
223	0x3c4ce5cc	0.01250596
224	0x3d067c73	0.032833528
225	0xbca9441f	-0.020662365
226	0xbcd387f7	-0.025821669
227	0x3e2f5982	0.17123988
228	0x3e179aa9	0.14805092
229	0xbc196a24	-0.009363685
230	0xbe0883b2	-0.13331488
231	0x3d65842c	0.056034252
232	0x3e2042b8	0.15650451
233	0x3e523f00	0.20531845
234	0xb9c60168	-0.0003776655
235	0x3b8b03e7	0.0042424086
236	0xbdbb36b8	-0.09141296
237	0x3e160b6a	0.14652792
238	0xbd8cf32e	-0.0688232
239	0x3ba0bc2f	0.0049052457
240	0x3cc72fd2	0.024314795
241	0x3b6183a6	0.0034410744
242	0x3deb5ea3	0.1149266
243	0x3e0b4cb5	0.1360348
244	0x3e427dbb	0.18993275
245	0x3e006550	0.12538648
246	0xbe6904e3	-0.2275577
247	0xbe24f5f5	-0.1610945
248	0x3b37c8a2	0.002804317
249	0x3d8f00d6	0.06982581
250	0x3db36784	0.087599784
251	0xbddbc76b	-0.10731395
252	0xbd4c4724	-0.049872532
253	0x3df11315	0.11771218
254	0x3e2aa1d8	0.16663301
255	0xbc59abbf	-0.013285576

lstm_macro.bias_ih_l0 f4 [128]
0	0x3e87f50d	0.26554146
1	0x3d309a39	0.04311583
2	0xbd749c4b	-0.059719365
3	0xbd8909d3	-0.06691327
4	0x3cd4c94f	0.025974898
5	0x3dddab96	0.10823743
6	0x3e1386f5	0.14406951
7	0xbda59693	-0.080853604
8	0x3e4289ff	0.18997954
9	0x3e5b4216	0.21411929
10	0xbd834867	-0.06410294
11	0xbd848cf3	-0.064721964
12	0x3e60ed9b	0.2196564
13	0x3e68f2ed	0.22748919
14	0x3e108262	0.14112237
15	0x3e6081f2	0.2192457
16	0x3d69f1a8	0.057115227
17	0x3d94da1e	0.07268165
18	0xbd20679e	-0.039161317
19	0x3cf126d0	0.029437453
20	0x3dc75e36	0.09734766
21	0x3d6f8f46	0.058486246
22	0x3dd7a1bb	0.105288945
23	0x3e0b23cb	0.13587873
24	0x3db274d9	0.08713693
25	0xbdfcb236	-0.123386785
26	0x3e3cfa48	0.1845485
27	0x3c742ed9	0.0149037475
28	0x3e388037	0.1801766
29	0xbd18af9c	-0.03727685
30	0x3e24e347	0.16102324
31	0xbc7322b5	-0.014839818
32	0x3ce91057	0.028450174
33	0x3da9caf4	0.08290663
34	0x3d8990df	0.06717085
35	0x3da15cb4	0.0787901
36	0xbbf2f1c0	-0.0074140728
37	0x3d1b0516	0.037846647
38	0x3e0e2da7	0.13884602
39	0x3cb0033c	0.021485917
40	0xbe034c90	-0.12822175
41	0x3d8b5d0c	0.06804857
42	0xbd89e327	-0.06732779
43	0x3dea7cf3	0.114496134
44	0xbd443d1f	-0.047909852
45	0x3de34415	0.1109697
46	0x3de0912a	0.10965188
47	0x3e11c21a	0.142342
48	0x3e49269a	0.19643632
49	0x3e0aeba6	0.13566455
50	0xbdd7a0aa	-0.10528691
51	0xbd6f4d6b	-0.05842344
52	0x3da818fe	0.08207892
53	0xbd3c24b5	-0.045933444
54	0xbca15961	-0.01969594
55	0xbe05a2bd	-0.13050361
56	0x3c5a1917	0.013311646
57	0x3d2bc67e	0.041937344
58	0x3dee4669	0.116345234
59	0x3cc3cf5e	0.023902591
60	0xb9f843ce	-0.00047352765
61	0x3d715168	0.058915526
62	0x3ba784a4	0.0051122475
63	0x3de344f9	0.1109714
64	0xbe0a6911	-0.13516642
65	0x3dbc25d1	0.091869004
66	0x3d32c369	0.04364339
67	0xbde58f3d	-0.11208961
68	0xbe2ed9f6	-0.17075333
69	0x3dd2ec31	0.10298956
70	0xbe4fe1bd	-0.20300956
71	0xbe303857	-0.17208992
72	0xbd71fc28	-0.059078366
73	0xbe2be5c5	-0.16786869
74	0x3dd3b7c0	0.10337782
75	0xba09738a	-0.0005243352
76	0x3d270a67	0.040781405
77	0x3d862618	0.065502346
78	0x3e1ea44c	0.15492362
79	0xbd511ba3	-0.051051747
80	0xbddf9ef0	-0.10918987
81	0xbdb37ab6	-0.0876364
82	0x3df3bee9	0.119016476
83	0x3e5344e2	0.20631745
84	0xbcc10dd9	-0.023566173
85	0xbd8d9e5e	-0.06914972
86	0xbe356f2b	-0.17718188
87	0x3c481662	0.012212368
88	0x3d3d75eb	0.046255033
89	0x3e387bfe	0.1801605
90	0x3e019755	0.12655385
91	0xbd212550	-0.039342225
92	0xbe15b46e	-0.1461961
93	0xbdd615d8	-0.10453385
94	0x3d908af0	0.0705775
95	0xbdb2a98e	-0.08723746
96	0x3e523121	0.20526554
97	0x3e29eaa6	0.16593418
98	0x3d0b2c57	0.033977833
99	0xbd5305b7	-0.051519122
100	0x3e60066f	0.21877454
101	0x3df55586	0.11979203
102	0x3e217a1b	0.15769236
103	0x3e0cb6de	0.13741633
104	0x3e03de67	0.12877809
105	0xbddee857	-0.10884159
106	0xbd2b9732	-0.041892238
107	0xbda5ec40	-0.08101702
108	0xbd60b5e8	-0.05486098
109	0xbd78298e	-0.060586505
110	0x3d3b7975	0.045770127
111	0xbd8f67d3	-0.07002225
112	0xbce4d716	-0.027934592
113	0x3c56b49c	0.013104584
114	0x3c15c6ed	0.009141666
115	0x3e272c45	0.16325481
116	0xbdd2f124	-0.102999
117	0xbd3c5320	-0.04597771
118	0x3e2023cf	0.1563866
119	0x3e759b3d	0.23985
120	0xbda30a4f	-0.079609506
121	0x3e3e9ea2	0.18615201
122	0x3e59e7bd	0.21279807
123	0x3d33f163	0.043931376
124	0x3e47332a	0.19453111
125	0x3e328ec2	0.1743727
126	0x3e0f1e3a	0.13976374
127	0x3de56b47	0.11202102

lstm_macro.bias_hh_l0 f4 [128]
0	0x3e6736fb	0.22579567
1	0x3de6d40f	0.11270916
2	0x3ca43e9c	0.020049386
3	0x3d0d5008	0.034500152
4	0xbda04ff8	-0.07827753
5	0xbd99f1c6	-0.07516818
6	0xbd126f3e	-0.03575062
7	0x3de3cd15	0.11123101
8	0xbd854ac8	-0.06508404
9	0x3e47de34	0.19518358
10	0x3e729a8e	0.2369177
11	0xbdee45a0	-0.11634374
12	0x3cd86d17	0.026419206
13	0x3df54476	0.119759485
14	0xbd287ebd	-0.041136492
15	0x3e6d4d11	0.2317393
16	0x3d71085c	0.058845863
17	0x3d165366	0.03670063
18	0x3e1d5346	0.15363798
19	0x3d8b7075	0.06808559
20	0xbbb3cd6e	-0.0054871356
21	0xbdc43164	-0.09579733
22	0x3e815ae6	0.25264663
23	0xbc7594bf	-0.014989077
24	0xbdcec8f9	-0.10096926
25	0x3e3d837d	0.1850719
26	0x3e3a1dc7	0.18175422
27	0x3dae667c	0.08515641
28	0x3cce717a	0.025200594
29	0xbd6bb5e9	-0.05754653
30	0x3cc4fe6f	0.024047105
31	0x3ccb1344	0.02478946
32	0x3c801889	0.0156367
33	0xbd8ff6c8	-0.07029492
34	0xbd9f9285	-0.07791618
35	0x3ccabce3	0.024748271
36	0x3d768de5	0.060193915
37	0x3d03c530	0.032170475
38	0x3bc0cce7	0.0058838013
39	0xbd96cd47	-0.07363372
40	0x3d87a56b	0.06623348
41	0xbdd5169d	-0.10404704
42	0xbd150ec9	-0.036391053
43	0x3d6c2695	0.057653982
44	0x3df9015a	0.12158461
45	0x3bf02656	0.0073287887
46	0xbdc67bc2	-0.09691574
47	0xbd5f937c	-0.05458401
48	0xbd706f63	-0.058699977
49	0x3e16a424	0.14711052
50	0xbdbaa762	-0.09113957
51	0x3dc9e1e8	0.09857541
52	0xbdcdc31a	-0.10046978
53	0xbdbdc74d	-0.09266529
54	0xbd002f2c	-0.031294987
55	0x3e35af13	0.17742567
56	0xbcd32450	-0.025774151
57	0x3e26efd2	0.16302422
58	0x3e2b698a	0.16739479
59	0x3dc86043	0.097839855
60	0x3e1e1369	0.15437092
61	0x3e29cde0	0.16582441
62	0x3c5f60e3	0.013633939
63	0xbd70d000	-0.058792114
64	0xbe00957c	-0.12557024
65	0xbd4be1c4	-0.049775854
66	0x3e09522e	0.13410255
67	0x3e28e53a	0.16493693
68	0x3da8fbb8	0.082511365
69	0xbe05f9c0	-0.13083553
70	0x3ce57a0d	0.0280123
71	0xbda3df86	-0.08001618
72	0xbe005242	-0.12531379
73	0xbe441be9	-0.19151272
74	0xbd06948b	-0.032856505
75	0xbe330a59	-0.17484416
76	0xbe118e42	-0.14214423
77	0x3d633541	0.05547071
78	0x3db26aa5	0.08711747
79	0xbd1e4386	-0.038638614
80	0xbe1fbfe1	-0.1560054
81	0x3e211993	0.15732412
82	0xbe1ddcc3	-0.15416245
83	0x3e1d492e	0.15359947
84	0xbd1272d4	-0.03575404
85	0xbe2842d4	-0.16431743
86	0xbe39568b	-0.1809942
87	0xbe04e619	-0.129784
88	0xbcb2341e	-0.021753367
89	0x3e4d6b74	0.20060521
90	0xbdee182e	-0.11625706
91	0x3d183c93	0.037167143
92	0xbda56f3f	-0.08077859
93	0xbe33127e	-0.17487523
94	0xbdac8602	-0.084239975
95	0xbba83225	-0.005132931
96	0x3e40caa5	0.18827303
97	0xbd8a3ca9	-0.06749851
98	0x3da01996	0.0781738
99	0x3ca3c9d0	0.019993693
100	0x3db51704	0.088422805
101	0x3bf9c228	0.007622022
102	0xbc13a1cc	-0.009010743
103	0x3e3c75c1	0.18404295
104	0xbd173185	-0.03691246
105	0xbd8254a9	-0.06363804
106	0x3e027af5	0.12742217
107	0xbe0a2e73	-0.13494281
108	0x3d09abb5	0.03361102
109	0x3d585acd	0.05282097
110	0xbbc2ac63	-0.0059409603
111	0x3e5dea75	0.2167147
112	0x3e53ebb4	0.20695382
113	0xbdb08d57	-0.086207084
114	0xbd800a3b	-0.06251951
115	0x3e4c6226	0.19959316
116	0x3e63b066	0.2223526
117	0x3de65dd9	0.11248369
118	0x3e0011bc	0.12506765
119	0x3db7da16	0.089771435
120	0x3cde94ac	0.027170502
121	0xbdab6aa9	-0.08369953
122	0x3dc7a6ac	0.09748587
123	0xbd0337bd	-0.032035578
124	0x3e3af5ae	0.18257782
125	0x3df21ec5	0.11822275
126	0x3e3bbe2c	0.18334264
127	0xbcfd0120	-0.030884326

lstm_fin.weight_ih_l0 f4 [64, 36]
0	0x3e739240	0.23786259
1	0x3e03adc6	0.12859258
2	0xbb8c3f64	-0.0042800177
3	0xbdb2a0a8	-0.08722049
4	0x3ddc55e6	0.10758571
5	0x3ded9a7b	0.116017304
6	0xba4cfc76	-0.0007819602
7	0xbd95a912	-0.07307638
8	0x3e5e1973	0.21689396
9	0xbbb108f1	-0.005402677
10	0xbcb5e512	-0.022203956
11	0x3e8baecc	0.27281797
12	0x3e4ca7f6	0.19985947
13	0x3e436ee7	0.19085275
14	0x3e8cef8d	0.27526513
15	0xbcda3744	-0.02663768
16	0x3e340802	0.1758118
17	0xbd8f37a5	-0.06993035
18	0xbe38524e	-0.18000147
19	0x3e81e95b	0.2537335
20	0x3e2eadb9	0.17058457
21	0x3e1cd5ca	0.15315929
22	0x3dbbffb6	0.09179632
23	0xbdbb6e71	-0.091519244
24	0xbe44de85	-0.1922551
25	0x3e6b6ddc	0.22991127
26	0x3e68b863	0.22726588
27	0xbd50d94f	-0.05098849
28	0x3e83fc3c	0.25778377
29	0x3e98d645	0.29850975
30	0x3d9c2aca	0.07625349
31	0x3e4142b4	0.18873101
32	0x3e1dea8e	0.15421507
33	0x3e49a8dc	0.19693321
34	0x3d7a46fe	0.06110286
35	0x3e53565a	0.2063841
36	0x3e3da826	0.18521175
37	0xbd939115	-0.072054066
38	0x3ddf72c5	0.109105624
39	0xbdfa079f	-0.12208485
40	0x3e0617e2	0.13095048
41	0x3d8defb9	0.06930489
42	0x3d890f13	0.06692328
43	0x3e43d068	0.1912247
44	0xbdc7e8f9	-0.09761233
45	0xbe23410d	-0.15942784
46	0x3dc69183	0.09695723
47	0x3d0d8512	0.034550734
48	0xbe3bd6f8	-0.18343723
49	0xbe80e55e	-0.25174993
50	0xbe3b2bf9	-0.18278493
51	0xbcf3f21a	-0.029778529
52	0x3d6fafa6	0.05851712
53	0xbe06c874	-0.13162404
54	0x3bb5505a	0.0055332603
55	0x3c541783	0.012945059
56	0xbe2b54b9	-0.16731538
57	0xbe76cc1a	-0.24101296
58	0x3c163924	0.009168897
59	0xbe68925c	-0.22712082
60	0x3c802c33	0.015646076
61	0xbdc738e8	-0.09727651
62	0xbe2fedca	-0.17180553
63	0xbdada0a1	-0.08477903
64	0xbe6f2043	-0.2335215
65	0xbe664db4	-0.22490579
66	0xbcb1eb85	-0.02171875
67	0xbd1b9764	-0.037986174
68	0x3e38cb0c	0.18046206
69	0xbdb07a3f	-0.086170666
70	0x3e15f6b1	0.14644887
71	0x3e1c01b2	0.15235022
72	0x3e370b49	0.17875399
73	0xbd84f1b0	-0.06491411
74	0x3d9e1072	0.077179804
75	0x3e877998	0.26459956
76	0xbe0ae8e6	-0.13565406
77	0x3e395650	0.18099332
78	0xbdfa2ae1	-0.1221521
79	0x3e6bc6a6	0.23024997
80	0x3e375a72	0.17905596
81	0xbd319853	-0.04335816
82	0x3dbd62a5	0.092473306
83	0xbbe61b75	-0.007022316
84	0x3e49ee7b	0.1971988
85	0xbd0030f4	-0.031296685
86	0xbdafa01b	-0.085754596
87	0xbd5ad4c8	-0.05342558
88	0xbae2037a	-0.0017243468
89	0xbddc1bf2	-0.10747518
90	0x3d48c861	0.04901922
91	0x3e4d97f7	0.20077501
92	0xbdc7d5ba	-0.09757562
93	0x3e26fb3b	0.16306774
94	0x3e681a75	0.22666343
95	0x3def89bd	0.11696193
96	0x3e52e45f	0.20594929
97	0x3e539397	0.2066177
98	0xbdbd5981	-0.09245587
99	0x3e307458	0.17231882
100	0x3e5a62e9	0.21326794
101	0xbdd55349	-0.10416276
102	0x3dfc8d9d	0.12331698
103	0x3d5f484e	0.054512314
104	0x3e2a8949	0.16653933
105	0x3e15e6d8	0.14638841
106	0x3e7f1d42	0.24913505
107	0xbe2af7d1	-0.16696097
108	0xbe40dc3f	-0.18834017
109	0x3e34f756	0.17672476
110	0x3daa9200	0.083286285
111	0xbd8efb23	-0.06981494
112	0xbe1f12a4	-0.15534455
113	0x3e59e676	0.2127932
114	0xbdf28a66	-0.11842804
115	0xbe1cfdce	-0.15331194
116	0x3e5fb415	0.2184604
117	0xbe33b914	-0.1755107
118	0xbe7afbf9	-0.24510182
119	0x3e09f140	0.13470936
120	0xbdf82f74	-0.12118426
121	0xbe3f03e5	-0.1865383
122	0x3c6e1c92	0.014533179
123	0x3d9a2166	0.075259015
124	0x3e1e92b7	0.15485655
125	0x3ce026aa	0.027362186
126	0xbe513c3f	-0.20433138
127	0x3d8ab639	0.067730375
128	0x3d21b4f5	0.039479215
129	0xbe7dd8f9	-0.247898
130	0xbe6233fa	-0.2209014
131	0x3e50e9b8	0.20401657
132	0x3df1235e	0.11774324
133	0xbe031ed3	-0.12804727
134	0x3d2478e3	0.04015435
135	0xbd037861	-0.032097224
136	0x3e23300b	0.15936296
137	0xbd342560	-0.043980956
138	0xbdb2fc71	-0.087395556
139	0x3e08531c	0.13312954
140	0xbdd7843e	-0.1052327
141	0x3dd3de86	0.10345177
142	0xbe40c212	-0.18824032
143	0x3c24aa97	0.010050437
144	0x3e039ac0	0.12852001
145	0x3e79c78c	0.24392527
146	0x3df29c3f	0.11846208
147	0x3db1f9ef	0.08690249
148	0x3e3b1606	0.1827012
149	0x3dc0c54e	0.09412633
150	0x3df55522	0.119791284
151	0x3e0fd7df	0.14047192
152	0xbe1128f5	-0.1417578
153	0x3e49a1b5	0.19690593
154	0x3e12a897	0.14322124
155	0x3e5fcd93	0.21855764
156	0xbdb9bcbf	-0.090692036
157	0x3e1d1b73	0.15342502
158	0xbe18de24	-0.1492849
159	0x3e61c27f	0.2204685
160	0x3e5ae1a9	0.21375145
161	0x3e6e7a5f	0.23288868
162	0xbe0bd602	-0.13655856
163	0x3da825dc	0.08210346
164	0xbe34e55d	-0.1766562
165	0xbd830fd8	-0.06399506
166	0xbcf030e2	-0.029320184
167	0x3e92d052	0.2867456
168	0xbe3bdcfc	-0.18346018
169	0x3d7d137c	0.06178616
170	0xbe288bcb	-0.16459577
171	0xbdfa865a	-0.12232657
172	0xbcc0e049	-0.023544447
173	0xbe4e6467	-0.20155488
174	0x3e90bcd1	0.28269055
175	0x3e37e155	0.17957051
176	0xbe3567d7	-0.17715393
177	0xbe1a85d5	-0.15090115
178	0x3d9b8675	0.07594005
179	0x3e27f1b4	0.16400796
180	0x3e3fa94e	0.18716928
181	0x3e49d39f	0.19709633
182	0x3e61d6ac	0.22054547
183	0xbdd98905	-0.106218375
184	0x3e7ed13f	0.24884509
185	0xbe4937c4	-0.19650179
186	0x3e2f1bbc	0.17100424
187	0x3da7f420	0.0820086
188	0x3d635df7	0.055509534
189	0x3e67f3de	0.22651622
190	0x3e52f66b	0.20601813
191	0x3e85eafa	0.26155835
192	0xbdda7448	-0.1066671
193	0xbe32a8f4	-0.17447263
194	0xbde591d1	-0.11209453
195	0xbe27af35	-0.1637543
196	0x3bf918db	0.00760184
197	0xbdbadcba	-0.091241315
198	0x3e20f332	0.15717772
199	0x3e7797a1	0.24178936
200	0x3e56bc27	0.20970212
201	0x3c99b8bf	0.018764852
202	0xbdd6734b	-0.10471209
203	0x3e8c0979	0.27350977
204	0xbd97f5b2	-0.074199095
205	0x3e074d64	0.13213116
206	0x3e16e1d0	0.14734578
207	0x3e821db3	0.25413284
208	0xbe2b946e	-0.1675584
209	0x3e83e7ed	0.25762883
210	0xbe30dd18	-0.1727184
211	0xbc7a5752	-0.015279608
212	0x3c337b9f	0.0109547665
213	0x3e045f66	0.12927017
214	0xbe54c794	-0.20779258
215	0x3e0dbbcd	0.13841172
216	0xbe03cc62	-0.12870935
217	0xbbc62a8d	-0.006047553
218	0xbe089ce3	-0.13341098
219	0xbdafc023	-0.08581569
220	0xbdc08cba	-0.094018415
221	0x3e017b06	0.12644586
222	0x3baf6516	0.0053526266
223	0xbe567b99	-0.20945586
224	0xbe4fb79c	-0.20284885
225	0x3d4af56f	0.04955047
226	0xbe221c77	-0.15831171
227	0xbdab4580	-0.083628654
228	0xbe58f5f4	-0.21187574
229	0xbde15c4d	-0.11003933
230	0xbde1336c	-0.10996136
231	0x3c866924	0.016407557
232	0x3d0d1227	0.03444114
233	0xbe38925b	-0.1802458
234	0xbb0a4887	-0.0021100359
235	0x3e0f0245	0.1396571
236	0xbd244b15	-0.040110666
237	0x3e044671	0.12917496
238	0xbd905ed7	-0.07049339
239	0xbe85330d	-0.2601551
240	0xbd27c4af	-0.040959056
241	0xbd27702d	-0.040878464
242	0xbe5b211e	-0.21399352
243	0xbdfa3c33	-0.12218513
244	0xbe8946e6	-0.26811904
245	0x3e27f8ea	0.16403547
246	0xbe97ff9a	-0.29687196
247	0xbd40963a	-0.047018267
248	0xbe872d0c	-0.26401556
249	0x3d651823	0.05593122
250	0xbe9692a5	-0.29408756
251	0x3d06323a	0.032762744
252	0x3e2fbbe2	0.17161515
253	0xbe2dada4	-0.1696077
254	0xbdd97e54	-0.10619798
255	0xbe225493	-0.15852575

lstm_fin.weight_hh_l0 f4 [64, 16]
0	0xbe3fdccf	-0.18736576
1	0xbddede80	-0.10882282
2	0x3e8f9f10	0.28051043
3	0xbe58cc48	-0.21171677
4	0xbbcafe5a	-0.006194872
5	0xbe5c5dc0	-0.21520138
6	0x3c1470b0	0.00906007
7	0x3db6103f	0.088898174
8	0x3e04fe64	0.12987667
9	0x3e1011c0	0.14069271
10	0xbe00bc89	-0.1257192
11	0x3e40a484	0.18812758
12	0x3e6c1c55	0.23057683
13	0x3c88a62e	0.016680803
14	0x3a443cce	0.0007485867
15	0xbe8a495c	-0.27009094
16	0x3d675e83	0.056486618
17	0x3e2c6724	0.1683622
18	0xbda118b7	-0.07866042
19	0xbe0afc26	-0.1357275
20	0x3df3789c	0.11888239
21	0x3e04a2e7	0.12952767
22	0x3e72cc82	0.23710826
23	0xbdd790da	-0.10525675
24	0xbe0fd6a6	-0.14046726
25	0x3e33f8f1	0.17575432
26	0xbe5a7c8c	-0.21336573
27	0x3e22ca30	0.15897441
28	0xbdc21003	-0.0947571
29	0xbd6fad40	-0.058514833
30	0x3df99ee4	0.12188509
31	0x3e8ef774	0.27923167
32	0xbe79e4ad	-0.24403639
33	0x3cfc7edd	0.030822212
34	0xbe356f11	-0.1771815
35	0xbe1c8f88	-0.15289128
36	0x3cea20c8	0.028580084
37	0x3d09c59f	0.03363573
38	0xbe100de7	-0.14067803
39	0x3db39032	0.087677374
40	0xbe5f227a	-0.21790496
41	0x3e845f53	0.25853977
42	0x3e4b81ec	0.1987378
43	0xbe5cf0c7	-0.21576224
44	0x3e1defef	0.15423559
45	0xbe303d7b	-0.17210953
46	0xbe23c29f	-0.15992211
47	0xbe1f03a0	-0.15528727
48	0x3d93006e	0.07177816
49	0xbe5fb679	-0.21846952
50	0x3e33bac4	0.17551714
51	0xbe523476	-0.20527825
52	0xba85c154	-0.0010204711
53	0xbdf2a498	-0.118478
54	0xbe332263	-0.17493586
55	0x3e330303	0.17481618
56	0x3de8febf	0.11376714
57	0xbd8d9a97	-0.06914251
58	0x3e137de4	0.14403492
59	0xbb91fe0f	-0.004455335
60	0x3d8656d3	0.06559529
61	0x3dfdaa02	0.12385942
62	0xbdaafb5c	-0.08348724
63	0x3e4bb762	0.19894174
64	0x3e264853	0.16238527
65	0xbe4259ff	-0.18979643
66	0x3e6514a6	0.22371158
67	0x3e07fde8	0.13280451
68	0xbdece3b6	-0.1156687
69	0xbbd85868	-0.0066023357
70	0x3e23be19	0.15990485
71	0xbe746e31	-0.2387016
72	0xbe61d2c1	-0.22053052
73	0xbe715a57	-0.23569618
74	0xbd82fb4e	-0.06395589
75	0x3e6fa167	0.23401414
76	0x3e099d55	0.13438924
77	0xbe596de1	-0.21233322
78	0xbe519c7b	-0.20469849
79	0x3e681318	0.22663534
80	0x3e123746	0.14278898
81	0xbd83bbfa	-0.06432338
82	0x3e215c46	0.15757856
83	0x3df64235	0.12024347
84	0xbe55773c	-0.20846266
85	0x3e2f1035	0.17096026
86	0xbdf5489a	-0.11976738
87	0x3e4c5800	0.19955444
88	0xbe13e43d	-0.14442535
89	0x3d084a9d	0.03327428
90	0x3de60956	0.112322494
91	0xbdbf1746	-0.09330611
92	0xbd64be30	-0.05584544
93	0x3e526e28	0.20549834
94	0xbdadc80f	-0.08485424
95	0x3d8e901f	0.06961083
96	0x3e77ab95	0.24186547
97	0xbddb25af	-0.10700547
98	0x3e6896cc	0.22713774
99	0xbd9dd7b7	-0.0770716
100	0xbd34d975	-0.044152696
101	0x3d3647d0	0.04450208
102	0x3d10182d	0.035179306
103	0x3cc77b0f	0.024350671
104	0x3e32f903	0.17477803
105	0xbe3206d7	-0.17385422
106	0xbe2a9567	-0.16658555
107	0x3d8f8fe0	0.07009864
108	0x3d30fe6e	0.043211393
109	0xbe5065d8	-0.2035135
110	0xbe5c8d7f	-0.21538351
111	0xbd82ee56	-0.06393115
112	0x3e158fec	0.14605683
113	0xbe56c004	-0.20971686
114	0xbd5fda59	-0.054651592
115	0xbd8a469b	-0.06751748
116	0xbe3556cf	-0.17708896
117	0x3e88176d	0.26580372
118	0xbc811dc3	-0.015761262
119	0xbd59e8f9	-0.053200696
120	0x3d0ef083	0.03489734
121	0xbd0cab90	-0.034343302
122	0xbd6fe48b	-0.058567565
123	0x3e453035	0.19256671
124	0xbe676b09	-0.22599424
125	0xbe899938	-0.2687471
126	0x3d6b1aea	0.057398714
127	0x3e53d711	0.2068751
128	0x3c598d9a	0.013278389
129	0xbe35f6c3	-0.17769913
130	0x3e5265e3	0.20546679
131	0xbe1a100f	-0.15045188
132	0x3e10aaed	0.14127703
133	0x3dc9dc43	0.09856465
134	0xbe88d090	-0.2672162
135	0x3dca6aaf	0.098836295
136	0x3dbe5f4a	0.09295519
137	0x3e594644	0.2121821
138	0x3d6dbad0	0.058039486
139	0xbd9348ae	-0.07191597
140	0x3e472666	0.19448242
141	0xbe4b401d	-0.19848676
142	0x3e43726b	0.19086616
143	0xbe0788ca	-0.13235775
144	0xbe3f9215	-0.1870807
145	0xbdd3e4f3	-0.10346403
146	0x3c858ae9	0.01630159
147	0x3cb88b99	0.022527503
148	0x3e319a0a	0.17343917
149	0x3e2e64e8	0.1703068
150	0x3d9a2d4a	0.075281695
151	0x3d7264f2	0.0591783
152	0x3af4df7a	0.0018682324
153	0x3d59b383	0.05314971
154	0x3e78f900	0.24313736
155	0xbd8ef553	-0.06980386
156	0x3d1c4666	0.038153075
157	0x3dc58def	0.09646212
158	0xbe4bebb6	-0.19914135
159	0x3e79a0c3	0.24377732
160	0xbe3b9b09	-0.1832086
161	0xbe0b48db	-0.13602011
162	0xb7f1fbb8	-2.8846654e-05
163	0xbc53699f	-0.0129036
164	0x3c9157e0	0.017742097
165	0x3e17d73d	0.148282
166	0xbdeec287	-0.11658197
167	0x3d2c8f7e	0.042129032
168	0x3e05edea	0.13079038
169	0xbe345d8c	-0.1761381
170	0x3e856e58	0.26060748
171	0x3d22e4ba	0.039768912
172	0x3e8b51b3	0.2721077
173	0x3da7ceb4	0.08193722
174	0xbe43460e	-0.19069692
175	0x3d9af0e4	0.075654775
176	0x3e74e78c	0.23916453
177	0xbdb3ed9b	-0.08785554
178	0x3cd94ce8	0.02652593
179	0x3e3a739f	0.18208168
180	0x3e5511e1	0.20807602
181	0x3e38a198	0.18030393
182	0x3e8cae9c	0.27476966
183	0xbcb58359	-0.022157358
184	0xbe0616be	-0.13094613
185	0x3d973b71	0.073843844
186	0x3c9492cd	0.018136406
187	0xbddd75e0	-0.108134985
188	0xbacafa91	-0.0015486052
189	0x3c09f151	0.008419351
190	0x3d5fc306	0.05462935
191	0xbe4963fb	-0.19667046
192	0x3e99e294	0.30055678
193	0xbe20f854	-0.1571973
194	0xbea082bd	-0.31349745
195	0xbe9bd38c	-0.30434835
196	0xbdbfccd5	-0.093652405
197	0xbd8a969d	-0.067670085
198	0x3d7d9d85	0.0619178
199	0xbe26dc3f	-0.16294955
200	0x3dc59d96	0.09649198
201	0x3d643837	0.055717673
202	0x3dd7e629	0.105419464
203	0x3c92cdbf	0.017920373
204	0x3e2e8b0e	0.17045233
205	0x3db18ec2	0.08669807
206	0x3e59f704	0.21285635
207	0xbde9a6f5	-0.11408798
208	0x3db223ad	0.08698211
209	0x3d97b53c	0.074076146
210	0xbe4db1b8	-0.20087326
211	0xbe546f3d	-0.20745559
212	0xbd107703	-0.03526975
213	0xbe613786	-0.21993837
214	0xbe017814	-0.12643462
215	0x3c459173	0.012058604
216	0x3e6d3b6d	0.231672
217	0xbe02d055	-0.12774785
218	0x3e52b2df	0.20576046
219	0xbca96f0d	-0.020682836
220	0xbe7ab31e	-0.2448239
221	0xbe80a774	-0.25127757
222	0xbd9746ed	-0.07386575
223	0x3ddc0788	0.10743624
224	0x3e297ad2	0.16550758
225	0xbe8468eb	-0.25861296
226	0x3d6ef05a	0.058334686
227	0xbc752c84	-0.014964227
228	0xbe2d06bb	-0.16897099
229	0xbe10af8e	-0.14129469
230	0x3d88545c	0.06656715
231	0x3e4286df	0.18996762
232	0xbd197925	-0.037469048
233	0x3e5eabc1	0.21745206
234	0xbe50c720	-0.2038846
235	0xbe22e7d0	-0.15908742
236	0xbdd3154c	-0.103067964
237	0xbe1334c6	-0.143756
238	0xbd07678c	-0.033057734
239	0x3e55755e	0.20845553
240	0xbe197aa8	-0.14988196
241	0x3ddd612e	0.10809551
242	0x3dae90b3	0.08523693
243	0x3e752522	0.23939946
244	0x3e2aae10	0.16667962
245	0x3da4cc57	0.08046787
246	0xbd518075	-0.051147897
247	0xbdd19fd9	-0.10235567
248	0xbdb66671	-0.08906258
249	0xbe055550	-0.13020825
250	0x3dfb2c41	0.122643
251	0x3de55776	0.111983225
252	0x3e86b954	0.2631327
253	0xbca31688	-0.019908205
254	0x3e44b798	0.1921066
255	0xbe0f2b02	-0.1398125

lstm_fin.bias_ih_l0 f4 [64]
0	0xbc9709d6	-0.018437307
1	0x3dbe4015	0.092895664
2	0xbd8eaad3	-0.06966176
3	0xbe3cf38e	-0.18452284
4	0x3d7eb231	0.062181655
5	0xbdd8e3f7	-0.10590356
6	0x3cc455f8	0.023966774
7	0x3ded3d9d	0.115840174
8	0x3e8e68eb	0.2781442
9	0x3d72362e	0.0591337
10	0xbd665ef9	-0.056242917
11	0xbd68e69a	-0.056860544
12	0x3d6e5057	0.058182087
13	0x3dfe9e6b	0.124325596
14	0x3e603aa2	0.21897367
15	0xbdd6b3b5	-0.10483495
16	0x3bf39c34	0.0074343923
17	0xbd416453	-0.047214817
18	0xbd635682	-0.055502422
19	0x3ddd9ddf	0.10821127
20	0xbdb331e5	-0.08749751
21	0xbe54135d	-0.20710512
22	0x3d9a287c	0.07527253
23	0x3d3fac40	0.04679513
24	0x3e8dc414	0.27688658
25	0x3e87a3b7	0.26492092
26	0xbc7d9c48	-0.015479155
27	0x3d91e15c	0.07123062
28	0x3dca37a3	0.09873893
29	0xbdb896d6	-0.09013145
30	0x3e0c619e	0.13709113
31	0xbdd25ece	-0.10271989
32	0x3dff9e75	0.12481395
33	0x3db3eb8e	0.08785163
34	0x3e2355ed	0.15950747
35	0xbd2ccdb1	-0.04218835
36	0x3e106183	0.14099698
37	0x3e20f199	0.15717162
38	0x3e61bed9	0.22045459
39	0xbe3401f7	-0.17578875
40	0x3e4d52d6	0.2005113
41	0x3e0def02	0.13860705
42	0x3e3c6754	0.18398792
43	0xbe79a479	-0.24379148
44	0x3e0a8ad9	0.13529529
45	0x3e36273e	0.17788407
46	0xbe887f83	-0.26659784
47	0xbd19be01	-0.037534717
48	0xbe44d1ef	-0.19220708
49	0xbd08b265	-0.033373255
50	0x3dcce6be	0.10004948
51	0x3db538d3	0.08848729
52	0x3d022c63	0.03178061
53	0x3e1991bd	0.14997001
54	0x3e4d188a	0.20028892
55	0x3e66358f	0.22481368
56	0xbe5da7df	-0.21646069
57	0xbe27adb1	-0.16374852
58	0x3e19390f	0.14963172
59	0xbe546d21	-0.20744754
60	0x3e7ba4a4	0.24574524
61	0x3e81ce48	0.25352693
62	0x3ba61d50	0.0050694123
63	0xbde1c966	-0.11024742

lstm_fin.bias_hh_l0 f4 [64]
0	0x3baf3eef	0.0053480784
1	0x3e34901f	0.17633103
2	0xbdccf909	-0.10008437
3	0x3e41c7fa	0.18923941
4	0xbc3b7234	-0.011440802
5	0x3c28e078	0.010307424
6	0xbdfb0178	-0.122561395
7	0xbe53ef6d	-0.20696802
8	0x3d003fcc	0.03131084
9	0x3e8b01e2	0.27149874
10	0xbdb32e7b	-0.087491
11	0xbe2befe3	-0.16790728
12	0x3d2da189	0.04239038
13	0x3dc8309e	0.09774898
14	0x3df0ca5a	0.117573455
15	0x3cd47fb2	0.025939796
16	0x3e8bed19	0.2732933
17	0xbe661538	-0.22469032
18	0x3d458170	0.048219144
19	0x3e840681	0.25786212
20	0xbe41a3db	-0.18910162
21	0x3da7107b	0.0815744
22	0x3e8f851c	0.28031242
23	0x3e4fa5fd	0.20278163
24	0xbde68c6e	-0.112572536
25	0x3dd190cb	0.10232695
26	0xbdcb50dd	-0.09927533
27	0x3dddf628	0.10837966
28	0xbabba345	-0.0014315626
29	0xbc0209b8	-0.007936887
30	0xbe52f65c	-0.20601791
31	0xbe214de1	-0.15752365
32	0xbe916ffd	-0.28405753
33	0xbe593723	-0.21212439
34	0x3e0c0b65	0.13676222
35	0x3e914b95	0.28377977
36	0xbe0881de	-0.1333079
37	0xbdb2061b	-0.08692571
38	0x3dbb008c	0.09130964
39	0xbe09883d	-0.13430877
40	0xbda157b7	-0.078780584
41	0x3e6aaa78	0.22916591
42	0xbe4110e6	-0.18854102
43	0xbe1449b5	-0.14481242
44	0xbe0710c9	-0.13189997
45	0xbe62d4f6	-0.2215155
46	0xbe88ca8f	-0.2671704
47	0x3c8a46b2	0.016879413
48	0xbdc3d065	-0.095612325
49	0xbe452517	-0.1925243
50	0xbe593519	-0.21211661
51	0x3e77a5d0	0.24184346
52	0xbc74cdce	-0.014941646
53	0x3e39f415	0.18159516
54	0x3e4c621a	0.19959298
55	0xbd661c1e	-0.05617916
56	0x3da6fa88	0.08153254
57	0xbe441c73	-0.19151478
58	0x3d2918f8	0.041283578
59	0x3dd08f7d	0.10183618
60	0xbe12ff2e	-0.14355156
61	0xbb4e47f2	-0.0031475988
62	0x3e2e1584	0.17000395
63	0x3cb3d524	0.02195222

dense1.weight f4 [64, 48]
0	0xbe375318	-0.17902792
1	0x3d0526dd	0.032507766
2	0x3e350171	0.17676331
3	0xbdc86776	-0.097853586
4	0xbd90ff5b	-0.07079955
5	0xbe1532cc	-0.14570159
6	0x3db4ae9b	0.08822366
7	0xbdbdb340	-0.09262705
8	0x3b035bca	0.0020043724
9	0xbe438321	-0.1909299
10	0xbde753ec	-0.11295304
11	0xbda79dc6	-0.0818439
12	0xbe408e6a	-0.18804327
13	0x3df0dcb7	0.11760848
14	0x3d4b31c2	0.049608
15	0x3db25f5f	0.08709597
16	0xbc3a7e2b	-0.01138262
17	0x3e061013	0.1309207
18	0xbe500ad3	-0.20316629
19	0x3dcd70f0	0.10031307
20	0x3df51cfe	0.119684204
21	0xbd77b2f3	-0.060473394
22	0x3d1011d7	0.035173263
23	0x3e21ff1c	0.15819973
24	0xbdbaf205	-0.09128193
25	0x3e21d467	0.15803681
26	0x3d23023e	0.03979706
27	0xbb836148	-0.0040093996
28	0xbe4c48c1	-0.19949628
29	0xbdd0b411	-0.10190595
30	0xbc9b2534	-0.018938638
31	0xb9a97d6b	-0.00032327636
32	0xbe1cea52	-0.15323761
33	0xbe1895db	-0.14900915
34	0x3dd7ef74	0.10543719
35	0x3dd3d713	0.103437565
36	0x3ca1678c	0.019702695
37	0xbdd27990	-0.102770925
38	0x3e1e490f	0.15457557
39	0x3cfb3824	0.030666418
40	0x3ca5c108	0.020233646
41	0x3d00ab2c	0.031413242
42	0x3d29c44e	0.041446976
43	0xbdecd947	-0.1156488
44	0x3d846cfa	0.06466098
45	0x3d8965af	0.06708848
46	0x3dac79d0	0.084216714
47	0xbe08b2e8	-0.13349497
48	0xbe34de78	-0.1766299
49	0x3e28a143	0.16467766
50	0x3d88b0a9	0.0667432
51	0x3d678ed4	0.056532696
52	0xbd9ada79	-0.075612016
53	0xbdc46a08	-0.09590536
54	0x3d8a4ccd	0.0675293
55	0x3d570ccd	0.052502442
56	0xbe1bd686	-0.15218553
57	0xbd0871b3	-0.033311557
58	0x3e033ad1	0.12815405
59	0xbd9a1420	-0.0752337
60	0xbe177e99	-0.14794387
61	0x3dfcb33b	0.12338873
62	0xbdc66755	-0.09687678
63	0x3d95c4f2	0.07312955
64	0xbabc6565	-0.001437348
65	0x3d5d062a	0.053960957
66	0xbd707d2d	-0.058713127
67	0x3d8d7380	0.069067955
68	0xbc9c29df	-0.019062934
69	0xbbfbb0b5	-0.007680977
70	0x3d563c99	0.052303884
71	0x3def1aa0	0.11675
72	0xbde7c00f	-0.11315929
73	0x3ddf42d5	0.10901419
74	0x3e0f0c61	0.13969566
75	0x3dd9216b	0.10602077
76	0xbe02d745	-0.12777431
77	0xbd7af04b	-0.061264317
78	0x3e00f020	0.125916
79	0xbe10d8e0	-0.14145231
80	0xbe1d7f4f	-0.15380596
81	0x3cfe3141	0.031029345
82	0x3db0d30b	0.08634003
83	0x3df7cc61	0.12099529
84	0xbc7c444a	-0.015397141
85	0xbe00933b	-0.12556164
86	0x3dd3cbd7	0.10341614
87	0x3d5cf699	0.05394611
88	0x3deb8c6b	0.11501392
89	0xbd7dca56	-0.06196054
90	0x3d21dffe	0.039520256
91	0xbddf769c	-0.10911295
92	0xbdac672a	-0.084181145
93	0xbd93d152	-0.07217659
94	0xbddf2411	-0.10895551
95	0xbb932e42	-0.0044915983
96	0xbe29473f	-0.16531084
97	0x3cb1f436	0.021722894
98	0xbd4d5096	-0.05012568
99	0x3dba3697	0.090924434
100	0xbdce579b	-0.10075303
101	0xbcc95ff4	-0.024581887
102	0xbc939966	-0.018017482
103	0xbe054ccd	-0.13017578
104	0xbe2d233f	-0.16907977
105	0xbe16f19e	-0.14740607
106	0x3d0338f8	0.03203675
107	0x3d8cfc38	0.068840444
108	0xbe4e524c	-0.20148581
109	0x3d96639c	0.07343218
110	0x3e08013a	0.13281718
111	0xbb690464	-0.0035555596
112	0xbe120af9	-0.14261998
113	0x3dda3a37	0.10655635
114	0x3d5cad3d	0.05387615
115	0x3df3c86f	0.11903464
116	0xbe46b732	-0.19405821
117	0xbcb8827e	-0.022523161
118	0xbde76820	-0.11299157
119	0xbc8b6121	-0.017014088
120	0xbd98a957	-0.07454174
121	0x3e38a677	0.18032251
122	0x3c2c60b9	0.010521107
123	0xbe060a90	-0.13089967
124	0xbde983b2	-0.11402072
125	0xbe17aea0	-0.14812708
126	0x3e335545	0.17512996
127	0x3bfa3aa5	0.0076363855
128	0xbd8576be	-0.06516789
129	0xbd702f24	-0.058638707
130	0xbc60fc18	-0.013731979
131	0xba5535fc	-0.00081333495
132	0x3dbf8371	0.09351242
133	0xbd209d71	-0.039212648
134	0x3ddbfa03	0.10741045
135	0xbc4bd131	-0.012440012
136	0x3d9c8539	0.07642598
137	0x3cfc6299	0.030808734
138	0x3d970928	0.07374793
139	0x3e036a68	0.1283356
140	0x3e07192e	0.13193199
141	0x3e31d6e0	0.17367125
142	0x3d9eab6b	0.07747539
143	0xbd9f5101	-0.07779122
144	0x3d419ff1	0.047271673
145	0x3df794b6	0.12088911
146	0x3dcb7412	0.09934248
147	0xbe36aad9	-0.1783861
148	0x3de86c0f	0.113487355
149	0x3e165adc	0.14683098
150	0x3e2ecb74	0.17069799
151	0x3d4bb4dc	0.049733028
152	0x3df9e78d	0.12202368
153	0xbd12acf2	-0.035809465
154	0xbe021c01	-0.12705995
155	0x3d81aa8b	0.063313566
156	0xbd6d19f5	-0.057886083
157	0x3cb137a0	0.02163297
158	0xbe14a374	-0.14515477
159	0x3da115e6	0.07865505
160	0xbbbea1bd	-0.0058176205
161	0xbdfc2f7f	-0.12313747
162	0x3dcb56ff	0.099287026
163	0xbd793d31	-0.060849372
164	0xbde15313	-0.11002173
165	0x3e2d64f7	0.16933046
166	0xbd986339	-0.074408
167	0x3e03467f	0.12819861
168	0xbd460c6f	-0.0483517
169	0xbdb4df02	-0.08831598
170	0xbe10f194	-0.14154655
171	0xbd92edf8	-0.07174295
172	0x3e262e8f	0.16228698
173	0xbd23affd	-0.039962757
174	0xbddf3099	-0.10897941
175	0x3da82546	0.08210234
176	0x3c96dd0a	0.018415947
177	0xbdfa4f5c	-0.12222168
178	0xbdc72545	-0.097239055
179	0xbda95ccb	-0.08269652
180	0xbd533657	-0.051565494
181	0x3dc44b0a	0.09584625
182	0xbe077df3	-0.1323164
183	0xbd5e2311	-0.05423266
184	0x3d7e6269	0.06210557
185	0xbde95c0c	-0.1139451
186	0x3dc110e8	0.09427053
187	0x3e443041	0.19159032
188	0x3c2ac79a	0.010423565
189	0xbd95459e	-0.07288669
190	0x3d9845d4	0.07435194
191	0xbdc85af7	-0.09782975
192	0xbcc101aa	-0.023560364
193	0x3d8f760c	0.070049375
194	0xbbcb3241	-0.006201059
195	0xbe42415e	-0.18970248
196	0x3d6271b0	0.055284202
197	0x3e16e92f	0.1473739
198	0x3db8664c	0.090038866
199	0xbd99fa6b	-0.075184666
200	0x3d33b160	0.04387033
201	0xbd3f5015	-0.04670723
202	0xbde1ea6e	-0.11031042
203	0xbca766cc	-0.02043476
204	0x3de29578	0.11063665
205	0x3b7030f6	0.0036650277
206	0xbd3010cb	-0.042984765
207	0x3e121fc0	0.14269924
208	0xbda7fb0b	-0.082021795
209	0x3d454afb	0.04816721
210	0x3db42bff	0.08797454
211	0xbe1fb75b	-0.15597288
212	0x3e3849d7	0.17996918
213	0x3c0d3d1c	0.008620527
214	0xbd3d4a47	-0.046213415
215	0x3e0ece50	0.1394589
216	0x3e4d6e1c	0.20061535
217	0xbc14dfd5	-0.009086569
218	0xbe4c7356	-0.19965872
219	0xbde09b76	-0.10967152
220	0xbdb1a894	-0.08674732
221	0x3cb4f064	0.022087283
222	0xbd566e87	-0.0523515
223	0x3d21256d	0.039342333
224	0x3cc95db9	0.024580823
225	0x3c949af2	0.01814029
226	0xbdd4d1d8	-0.10391587
227	0x3da1cf8d	0.07900915
228	0x3e08081a	0.1328434
229	0x3d6ffb4c	0.058589265
230	0xbe01de63	-0.1268249
231	0x3b898447	0.004196677
232	0x3c401d72	0.01172577
233	0xbdda44a8	-0.106576264
234	0xbcb6ee95	-0.022330562
235	0xbc5c5301	-0.013447524
236	0x3d32231b	0.04349051
237	0xbdea5cc1	-0.11443473
238	0x3ddc58b4	0.10759106
239	0x3d25e274	0.040499166
240	0xbcecf55c	-0.02892559
241	0x3df54247	0.11975532
242	0xbce0c065	-0.02743549
243	0xbd97253a	-0.07380147
244	0x3e34285b	0.1759352
245	0x3ded9932	0.11601485
246	0x3e284956	0.16434225
247	0xbd8a74b1	-0.06760538
248	0x3cbf9efb	0.023391237
249	0x3da3a36a	0.07990153
250	0xbd83822d	-0.064213134
251	0x3de02b85	0.10945801
252	0x3c1bcb52	0.009508925
253	0x3dc576b2	0.0964178
254	0xbb884240	-0.0041582882
255	0x3d21fdf6	0.039548837

dense1.bias f4 [64]
0	0x3e06d2d9	0.1316637
1	0x3dfdb282	0.12387563
2	0x3decb0b3	0.1155714
3	0xbd8a58ec	-0.06755242
4	0xbdf133db	-0.11777469
5	0xbe026834	-0.12735063
6	0xbd5570f4	-0.052109674
7	0x3daecf33	0.08535614
8	0xbd6d5602	-0.05794335
9	0xbde52f33	-0.11190643
10	0xbda0ef02	-0.07858087
11	0x3d961129	0.07327492
12	0xbdcc5e60	-0.09978938
13	0xbda3a137	-0.07989734
14	0xbd9d69c6	-0.0768619
15	0x3db6d1a7	0.08926707
16	0x3e25cd7b	0.16191666
17	0x3e109efc	0.14123148
18	0xbe38a07b	-0.18029968
19	0x3d8ac925	0.067766465
20	0xbdf530dd	-0.119722106
21	0xbe109051	-0.14117552
22	0xbccbf383	-0.024896389
23	0xbe22b43d	-0.15889068
24	0xbe2da6dd	-0.16958185
25	0x3e386486	0.18007097
26	0xbe05937e	-0.13044545
27	0xbe3174db	-0.17329733
28	0x3cacc061	0.021087827
29	0x3e2e6bda	0.1703333
30	0xbe1353c2	-0.1438742
31	0xbbc0d0a3	-0.0058842464
32	0x3def54c1	0.116860874
33	0x3e1cc9fe	0.15311429
34	0xbdf998de	-0.1218736
35	0xbb4774d3	-0.0030434623
36	0xbe2e761b	-0.17037241
37	0xbd995de8	-0.07488614
38	0x3c8ab32c	0.016931139
39	0x3e0d5aab	0.13804118
40	0x3d0b88e6	0.034066103
41	0xbe385042	-0.17999366
42	0xbd8a577f	-0.0675497
43	0x3cd7b80d	0.02633288
44	0x3d88877c	0.066664666
45	0xbdd72c2b	-0.10506471
46	0x3de46e45	0.11153845
47	0xbe072f15	-0.13201554
48	0xbdeae65d	-0.114697196
49	0xbc1f46cd	-0.00972147
50	0x3d0db434	0.034595683
51	0xbe1b5cc9	-0.15172113
52	0x3ba8bf70	0.0051497743
53	0xbcaebeb8	-0.021331176
54	0x3dc26eb1	0.09493769
55	0x3dfe2b8c	0.1241065
56	0x3e015ccb	0.12633054
57	0x3d987b6f	0.07445418
58	0xbd84a3ec	-0.06476578
59	0xbd8567ce	-0.0651394
60	0x3e1b364f	0.15157436
61	0xbd9da888	-0.076981604
62	0xbce3f195	-0.027825156
63	0xbd6a8e73	-0.057264756
